[convolutional]
filters=4
size=3
stride=1
pad=1
activation=leaky

[maxpool]
size=4
stride=4

[convolutional]
filters=8
size=3
stride=1
pad=1
activation=leaky

[maxpool]
size=4
stride=4

[convolutional]
filters=16
size=3
stride=1
pad=1
activation=leaky

[maxpool]
size=2
stride=2

[convolutional]
filters=32
size=1
stride=1
pad=1
activation=leaky

[maxpool]
size=2
stride=2

[convolutional]
filters=64
size=3
stride=1
pad=1
activation=leaky

[convolutional]
filters=32
size=1
stride=1
pad=1
activation=leaky

[connected]
output=1024
activation=linear

[connected]
output=2048
activation=leaky

[dropout]
probability=.5

[connected]
output= 1573
activation=linear

[detection]
classes=3
side=11